…
h_size=1, ckpt='models/yolox_darknet.pth', conf=0.001, devices=1, dist_backend='nccl', dist_url=None, exp_file=None, experiment_name='yolov3', fp16=True, fuse=True, legacy=False, machine_rank=0, name='yolov3', nms=None, num_machines=1, opts=[], seed=None, speed=False, test=False, trt=False, tsize=None)
2023-05-07 18:21:17.360 | INFO     | __main__:main:149 - Model Summary: Params: 63.72M, Gflops: 185.47
2023-05-07 18:21:17.363 | INFO     | __main__:main:150 - Model Structure:
YOLOX(
  (backbone): YOLOFPN(
    (backbone): Darknet(
      (stem): Sequential(
        (0): BaseConv(
          (conv): Conv2d(3, 32, kernel_size=(3, 3), stride=(1, 1), padding=(1, 1), bias=False)
          (bn): BatchNorm2d(32, eps=0.001, momentum=0.03, affine=True, track_running_stats=True)
          (act): LeakyReLU(negative_slope=0.1, inplace=True)
        )
        (1): BaseConv(
          (conv): Conv2d(32, 64, kernel_size=(3, 3), stride=(2, 2), padding=(1, 1), bias=False)
          (bn): BatchNorm2d(64, eps=0.001, momentum=0.03, affine=True, track_running_stats=True)
          (act): LeakyReLU(negative_slope=0.1, inplace=True)
        )
        (2): ResLayer(
          (layer1): BaseConv(
            (conv): Conv2d(64, 32, kernel_size=(1, 1), stride=(1, 1), bias=False)
            (bn): BatchNorm2d(32, eps=0.001, momentum=0.03, affine=True, track_running_stats=True)
            (act): LeakyReLU(negative_slope=0.1, inplace=True)
          )
          (layer2): BaseConv(
            (conv): Conv2d(32, 64, kernel_size=(3, 3), stride=(1, 1), padding=(1, 1), bias=False)
            (bn): BatchNorm2d(64, eps=0.001, momentum=0.03, affine=True, track_running_stats=True)
            (act): LeakyReLU(negative_slope=0.1, inplace=True)
          )
        )
      )
      (dark2): Sequential(
        (0): BaseConv(
          (conv): Conv2d(64, 128, kernel_size=(3, 3), stride=(2, 2), padding=(1, 1), bias=False)
          (bn): BatchNorm2d(128, eps=0.001, momentum=0.03, affine=True, track_running_stats=True)
          (act): LeakyReLU(negative_slope=0.1, inplace=True)
        )
        (1): ResLayer(
          (layer1): BaseConv(
            (conv): Conv2d(128, 64, kernel_size=(1, 1), stride=(1, 1), bias=False)
            (bn): BatchNorm2d(64, eps=0.001, momentum=0.03, affine=True, track_running_stats=True)
            (act): LeakyReLU(negative_slope=0.1, inplace=True)
          )
          (layer2): BaseConv(
            (conv): Conv2d(64, 128, kernel_size=(3, 3), stride=(1, 1), padding=(1, 1), bias=False)
            (bn): BatchNorm2d(128, eps=0.001, momentum=0.03, affine=True, track_running_stats=True)
            (act): LeakyReLU(negative_slope=0.1, inplace=True)
          )
        )
        (2): ResLayer(
          (layer1): BaseConv(
            (conv): Conv2d(128, 64, kernel_size=(1, 1), stride=(1, 1), bias=False)
            (bn): BatchNorm2d(64, eps=0.001, momentum=0.03, affine=True, track_running_stats=True)
            (act): LeakyReLU(negative_slope=0.1, inplace=True)
          )
          (layer2): BaseConv(
            (conv): Conv2d(64, 128, kernel_size=(3, 3), stride=(1, 1), padding=(1, 1), bias=False)
            (bn): BatchNorm2d(128, eps=0.001, momentum=0.03, affine=True, track_running_stats=True)
            (act): LeakyReLU(negative_slope=0.1, inplace=True)
          )
        )
      )
      (dark3): Sequential(
        (0): BaseConv(
          (conv): Conv2d(128, 256, kernel_size=(3, 3), stride=(2, 2), padding=(1, 1), bias=False)
          (bn): BatchNorm2d(256, eps=0.001, momentum=0.03, affine=True, track_running_stats=True)
          (act): LeakyReLU(negative_slope=0.1, inplace=True)
        )
        (1): ResLayer(
          (layer1): BaseConv(
            (conv): Conv2d(256, 128, kernel_size=(1, 1), stride=(1, 1), bias=False)
            (bn): BatchNorm2d(128, eps=0.001, momentum=0.03, affine=True, track_running_stats=True)
            (act): LeakyReLU(negative_slope=0.1, inplace=True)
          )
          (layer2): BaseConv(
            (conv): Conv2d(128, 256, kernel_size=(3, 3), stride=(1, 1), padding=(1, 1), bias=False)
            (bn): BatchNorm2d(256, eps=0.001, momentum=0.03, affine=True, track_running_stats=True)
            (act): LeakyReLU(negative_slope=0.1, inplace=True)
          )
        )
        (2): ResLayer(
          (layer1): BaseConv(
            (conv): Conv2d(256, 128, kernel_size=(1, 1), stride=(1, 1), bias=False)
            (bn): BatchNorm2d(128, eps=0.001, momentum=0.03, affine=True, track_running_stats=True)
            (act): LeakyReLU(negative_slope=0.1, inplace=True)
          )
          (layer2): BaseConv(
            (conv): Conv2d(128, 256, kernel_size=(3, 3), stride=(1, 1), padding=(1, 1), bias=False)
            (bn): BatchNorm2d(256, eps=0.001, momentum=0.03, affine=True, track_running_stats=True)
            (act): LeakyReLU(negative_slope=0.1, inplace=True)
          )
        )
        (3): ResLayer(
          (layer1): BaseConv(
            (conv): Conv2d(256, 128, kernel_size=(1, 1), stride=(1, 1), bias=False)
            (bn): BatchNorm2d(128, eps=0.001, momentum=0.03, affine=True, track_running_stats=True)
            (act): LeakyReLU(negative_slope=0.1, inplace=True)
          )
          (layer2): BaseConv(
            (conv): Conv2d(128, 256, kernel_size=(3, 3), stride=(1, 1), padding=(1, 1), bias=False)
            (bn): BatchNorm2d(256, eps=0.001, momentum=0.03, affine=True, track_running_stats=True)
            (act): LeakyReLU(negative_slope=0.1, inplace=True)
          )
        )
        (4): ResLayer(
          (layer1): BaseConv(
            (conv): Conv2d(256, 128, kernel_size=(1, 1), stride=(1, 1), bias=False)
            (bn): BatchNorm2d(128, eps=0.001, momentum=0.03, affine=True, track_running_stats=True)
            (act): LeakyReLU(negative_slope=0.1, inplace=True)
          )
          (layer2): BaseConv(
            (conv): Conv2d(128, 256, kernel_size=(3, 3), stride=(1, 1), padding=(1, 1), bias=False)
            (bn): BatchNorm2d(256, eps=0.001, momentum=0.03, affine=True, track_running_stats=True)
            (act): LeakyReLU(negative_slope=0.1, inplace=True)
          )
        )
        (5): ResLayer(
          (layer1): BaseConv(
            (conv): Conv2d(256, 128, kernel_size=(1, 1), stride=(1, 1), bias=False)
            (bn): BatchNorm2d(128, eps=0.001, momentum=0.03, affine=True, track_running_stats=True)
            (act): LeakyReLU(negative_slope=0.1, inplace=True)
          )
          (layer2): BaseConv(
            (conv): Conv2d(128, 256, kernel_size=(3, 3), stride=(1, 1), padding=(1, 1), bias=False)
            (bn): BatchNorm2d(256, eps=0.001, momentum=0.03, affine=True, track_running_stats=True)
            (act): LeakyReLU(negative_slope=0.1, inplace=True)
          )
        )
        (6): ResLayer(
          (layer1): BaseConv(
            (conv): Conv2d(256, 128, kernel_size=(1, 1), stride=(1, 1), bias=False)
            (bn): BatchNorm2d(128, eps=0.001, momentum=0.03, affine=True, track_running_stats=True)
            (act): LeakyReLU(negative_slope=0.1, inplace=True)
          )
          (layer2): BaseConv(
            (conv): Conv2d(128, 256, kernel_size=(3, 3), stride=(1, 1), padding=(1, 1), bias=False)
            (bn): BatchNorm2d(256, eps=0.001, momentum=0.03, affine=True, track_running_stats=True)
            (act): LeakyReLU(negative_slope=0.1, inplace=True)
          )
        )
        (7): ResLayer(
          (layer1): BaseConv(
            (conv): Conv2d(256, 128, kernel_size=(1, 1), stride=(1, 1), bias=False)
            (bn): BatchNorm2d(128, eps=0.001, momentum=0.03, affine=True, track_running_stats=True)
            (act): LeakyReLU(negative_slope=0.1, inplace=True)
          )
          (layer2): BaseConv(
            (conv): Conv2d(128, 256, kernel_size=(3, 3), stride=(1, 1), padding=(1, 1), bias=False)
            (bn): BatchNorm2d(256, eps=0.001, momentum=0.03, affine=True, track_running_stats=True)
            (act): LeakyReLU(negative_slope=0.1, inplace=True)
          )
        )
        (8): ResLayer(
          (layer1): BaseConv(
            (conv): Conv2d(256, 128, kernel_size=(1, 1), stride=(1, 1), bias=False)
            (bn): BatchNorm2d(128, eps=0.001, momentum=0.03, affine=True, track_running_stats=True)
            (act): LeakyReLU(negative_slope=0.1, inplace=True)
          )
          (layer2): BaseConv(
            (conv): Conv2d(128, 256, kernel_size=(3, 3), stride=(1, 1), padding=(1, 1), bias=False)
            (bn): BatchNorm2d(256, eps=0.001, momentum=0.03, affine=True, track_running_stats=True)
            (act): LeakyReLU(negative_slope=0.1, inplace=True)
          )
        )
      )
      (dark4): Sequential(
        (0): BaseConv(
          (conv): Conv2d(256, 512, kernel_size=(3, 3), stride=(2, 2), padding=(1, 1), bias=False)
          (bn): BatchNorm2d(512, eps=0.001, momentum=0.03, affine=True, track_running_stats=True)
          (act): LeakyReLU(negative_slope=0.1, inplace=True)
        )
        (1): ResLayer(
          (layer1): BaseConv(
            (conv): Conv2d(512, 256, kernel_size=(1, 1), stride=(1, 1), bias=False)
            (bn): BatchNorm2d(256, eps=0.001, momentum=0.03, affine=True, track_running_stats=True)
            (act): LeakyReLU(negative_slope=0.1, inplace=True)
          )
          (layer2): BaseConv(
            (conv): Conv2d(256, 512, kernel_size=(3, 3), stride=(1, 1), padding=(1, 1), bias=False)
            (bn): BatchNorm2d(512, eps=0.001, momentum=0.03, affine=True, track_running_stats=True)
            (act): LeakyReLU(negative_slope=0.1, inplace=True)
          )
        )
        (2): ResLayer(
          (layer1): BaseConv(
            (conv): Conv2d(512, 256, kernel_size=(1, 1), stride=(1, 1), bias=False)
            (bn): BatchNorm2d(256, eps=0.001, momentum=0.03, affine=True, track_running_stats=True)
            (act): LeakyReLU(negative_slope=0.1, inplace=True)
          )
          (layer2): BaseConv(
            (conv): Conv2d(256, 512, kernel_size=(3, 3), stride=(1, 1), padding=(1, 1), bias=False)
            (bn): BatchNorm2d(512, eps=0.001, momentum=0.03, affine=True, track_running_stats=True)
            (act): LeakyReLU(negative_slope=0.1, inplace=True)
          )
        )
        (3): ResLayer(
          (layer1): BaseConv(
            (conv): Conv2d(512, 256, kernel_size=(1, 1), stride=(1, 1), bias=False)
            (bn): BatchNorm2d(256, eps=0.001, momentum=0.03, affine=True, track_running_stats=True)
            (act): LeakyReLU(negative_slope=0.1, inplace=True)
          )
          (layer2): BaseConv(
            (conv): Conv2d(256, 512, kernel_size=(3, 3), stride=(1, 1), padding=(1, 1), bias=False)
            (bn): BatchNorm2d(512, eps=0.001, momentum=0.03, affine=True, track_running_stats=True)
            (act): LeakyReLU(negative_slope=0.1, inplace=True)
          )
        )
        (4): ResLayer(
          (layer1): BaseConv(
            (conv): Conv2d(512, 256, kernel_size=(1, 1), stride=(1, 1), bias=False)
            (bn): BatchNorm2d(256, eps=0.001, momentum=0.03, affine=True, track_running_stats=True)
            (act): LeakyReLU(negative_slope=0.1, inplace=True)
          )
          (layer2): BaseConv(
            (conv): Conv2d(256, 512, kernel_size=(3, 3), stride=(1, 1), padding=(1, 1), bias=False)
            (bn): BatchNorm2d(512, eps=0.001, momentum=0.03, affine=True, track_running_stats=True)
            (act): LeakyReLU(negative_slope=0.1, inplace=True)
          )
        )
        (5): ResLayer(
          (layer1): BaseConv(
            (conv): Conv2d(512, 256, kernel_size=(1, 1), stride=(1, 1), bias=False)
            (bn): BatchNorm2d(256, eps=0.001, momentum=0.03, affine=True, track_running_stats=True)
            (act): LeakyReLU(negative_slope=0.1, inplace=True)
          )
          (layer2): BaseConv(
            (conv): Conv2d(256, 512, kernel_size=(3, 3), stride=(1, 1), padding=(1, 1), bias=False)
            (bn): BatchNorm2d(512, eps=0.001, momentum=0.03, affine=True, track_running_stats=True)
            (act): LeakyReLU(negative_slope=0.1, inplace=True)
          )
        )
        (6): ResLayer(
          (layer1): BaseConv(
            (conv): Conv2d(512, 256, kernel_size=(1, 1), stride=(1, 1), bias=False)
            (bn): BatchNorm2d(256, eps=0.001, momentum=0.03, affine=True, track_running_stats=True)
            (act): LeakyReLU(negative_slope=0.1, inplace=True)
          )
          (layer2): BaseConv(
            (conv): Conv2d(256, 512, kernel_size=(3, 3), stride=(1, 1), padding=(1, 1), bias=False)
            (bn): BatchNorm2d(512, eps=0.001, momentum=0.03, affine=True, track_running_stats=True)
            (act): LeakyReLU(negative_slope=0.1, inplace=True)
          )
        )
        (7): ResLayer(
          (layer1): BaseConv(
            (conv): Conv2d(512, 256, kernel_size=(1, 1), stride=(1, 1), bias=False)
            (bn): BatchNorm2d(256, eps=0.001, momentum=0.03, affine=True, track_running_stats=True)
            (act): LeakyReLU(negative_slope=0.1, inplace=True)
          )
          (layer2): BaseConv(
            (conv): Conv2d(256, 512, kernel_size=(3, 3), stride=(1, 1), padding=(1, 1), bias=False)
            (bn): BatchNorm2d(512, eps=0.001, momentum=0.03, affine=True, track_running_stats=True)
            (act): LeakyReLU(negative_slope=0.1, inplace=True)
          )
        )
        (8): ResLayer(
          (layer1): BaseConv(
            (conv): Conv2d(512, 256, kernel_size=(1, 1), stride=(1, 1), bias=False)
            (bn): BatchNorm2d(256, eps=0.001, momentum=0.03, affine=True, track_running_stats=True)
            (act): LeakyReLU(negative_slope=0.1, inplace=True)
          )
          (layer2): BaseConv(
            (conv): Conv2d(256, 512, kernel_size=(3, 3), stride=(1, 1), padding=(1, 1), bias=False)
            (bn): BatchNorm2d(512, eps=0.001, momentum=0.03, affine=True, track_running_stats=True)
            (act): LeakyReLU(negative_slope=0.1, inplace=True)
          )
        )
      )
      (dark5): Sequential(
        (0): BaseConv(
          (conv): Conv2d(512, 1024, kernel_size=(3, 3), stride=(2, 2), padding=(1, 1), bias=False)
          (bn): BatchNorm2d(1024, eps=0.001, momentum=0.03, affine=True, track_running_stats=True)
          (act): LeakyReLU(negative_slope=0.1, inplace=True)
        )
        (1): ResLayer(
          (layer1): BaseConv(
            (conv): Conv2d(1024, 512, kernel_size=(1, 1), stride=(1, 1), bias=False)
            (bn): BatchNorm2d(512, eps=0.001, momentum=0.03, affine=True, track_running_stats=True)
            (act): LeakyReLU(negative_slope=0.1, inplace=True)
          )
          (layer2): BaseConv(
            (conv): Conv2d(512, 1024, kernel_size=(3, 3), stride=(1, 1), padding=(1, 1), bias=False)
            (bn): BatchNorm2d(1024, eps=0.001, momentum=0.03, affine=True, track_running_stats=True)
            (act): LeakyReLU(negative_slope=0.1, inplace=True)
          )
        )
        (2): ResLayer(
          (layer1): BaseConv(
            (conv): Conv2d(1024, 512, kernel_size=(1, 1), stride=(1, 1), bias=False)
            (bn): BatchNorm2d(512, eps=0.001, momentum=0.03, affine=True, track_running_stats=True)
            (act): LeakyReLU(negative_slope=0.1, inplace=True)
          )
          (layer2): BaseConv(
            (conv): Conv2d(512, 1024, kernel_size=(3, 3), stride=(1, 1), padding=(1, 1), bias=False)
            (bn): BatchNorm2d(1024, eps=0.001, momentum=0.03, affine=True, track_running_stats=True)
            (act): LeakyReLU(negative_slope=0.1, inplace=True)
          )
        )
        (3): ResLayer(
          (layer1): BaseConv(
            (conv): Conv2d(1024, 512, kernel_size=(1, 1), stride=(1, 1), bias=False)
            (bn): BatchNorm2d(512, eps=0.001, momentum=0.03, affine=True, track_running_stats=True)
            (act): LeakyReLU(negative_slope=0.1, inplace=True)
          )
          (layer2): BaseConv(
            (conv): Conv2d(512, 1024, kernel_size=(3, 3), stride=(1, 1), padding=(1, 1), bias=False)
            (bn): BatchNorm2d(1024, eps=0.001, momentum=0.03, affine=True, track_running_stats=True)
            (act): LeakyReLU(negative_slope=0.1, inplace=True)
          )
        )
        (4): ResLayer(
          (layer1): BaseConv(
            (conv): Conv2d(1024, 512, kernel_size=(1, 1), stride=(1, 1), bias=False)
            (bn): BatchNorm2d(512, eps=0.001, momentum=0.03, affine=True, track_running_stats=True)
            (act): LeakyReLU(negative_slope=0.1, inplace=True)
          )
          (layer2): BaseConv(
            (conv): Conv2d(512, 1024, kernel_size=(3, 3), stride=(1, 1), padding=(1, 1), bias=False)
            (bn): BatchNorm2d(1024, eps=0.001, momentum=0.03, affine=True, track_running_stats=True)
            (act): LeakyReLU(negative_slope=0.1, inplace=True)
          )
        )
        (5): BaseConv(
          (conv): Conv2d(1024, 512, kernel_size=(1, 1), stride=(1, 1), bias=False)
          (bn): BatchNorm2d(512, eps=0.001, momentum=0.03, affine=True, track_running_stats=True)
          (act): LeakyReLU(negative_slope=0.1, inplace=True)
        )
        (6): BaseConv(
          (conv): Conv2d(512, 1024, kernel_size=(3, 3), stride=(1, 1), padding=(1, 1), bias=False)
          (bn): BatchNorm2d(1024, eps=0.001, momentum=0.03, affine=True, track_running_stats=True)
          (act): LeakyReLU(negative_slope=0.1, inplace=True)
        )
        (7): SPPBottleneck(
          (conv1): BaseConv(
            (conv): Conv2d(1024, 512, kernel_size=(1, 1), stride=(1, 1), bias=False)
            (bn): BatchNorm2d(512, eps=0.001, momentum=0.03, affine=True, track_running_stats=True)
            (act): LeakyReLU(negative_slope=0.1, inplace=True)
          )
          (m): ModuleList(
            (0): MaxPool2d(kernel_size=5, stride=1, padding=2, dilation=1, ceil_mode=False)
            (1): MaxPool2d(kernel_size=9, stride=1, padding=4, dilation=1, ceil_mode=False)
            (2): MaxPool2d(kernel_size=13, stride=1, padding=6, dilation=1, ceil_mode=False)
          )
          (conv2): BaseConv(
            (conv): Conv2d(2048, 512, kernel_size=(1, 1), stride=(1, 1), bias=False)
            (bn): BatchNorm2d(512, eps=0.001, momentum=0.03, affine=True, track_running_stats=True)
            (act): LeakyReLU(negative_slope=0.1, inplace=True)
          )
        )
        (8): BaseConv(
          (conv): Conv2d(512, 1024, kernel_size=(3, 3), stride=(1, 1), padding=(1, 1), bias=False)
          (bn): BatchNorm2d(1024, eps=0.001, momentum=0.03, affine=True, track_running_stats=True)
          (act): LeakyReLU(negative_slope=0.1, inplace=True)
        )
        (9): BaseConv(
          (conv): Conv2d(1024, 512, kernel_size=(1, 1), stride=(1, 1), bias=False)
          (bn): BatchNorm2d(512, eps=0.001, momentum=0.03, affine=True, track_running_stats=True)
          (act): LeakyReLU(negative_slope=0.1, inplace=True)
        )
      )
    )
    (out1_cbl): BaseConv(
      (conv): Conv2d(512, 256, kernel_size=(1, 1), stride=(1, 1), bias=False)
      (bn): BatchNorm2d(256, eps=0.001, momentum=0.03, affine=True, track_running_stats=True)
      (act): LeakyReLU(negative_slope=0.1, inplace=True)
    )
    (out1): Sequential(
      (0): BaseConv(
        (conv): Conv2d(768, 256, kernel_size=(1, 1), stride=(1, 1), bias=False)
        (bn): BatchNorm2d(256, eps=0.001, momentum=0.03, affine=True, track_running_stats=True)
        (act): LeakyReLU(negative_slope=0.1, inplace=True)
      )
      (1): BaseConv(
        (conv): Conv2d(256, 512, kernel_size=(3, 3), stride=(1, 1), padding=(1, 1), bias=False)
        (bn): BatchNorm2d(512, eps=0.001, momentum=0.03, affine=True, track_running_stats=True)
        (act): LeakyReLU(negative_slope=0.1, inplace=True)
      )
      (2): BaseConv(
        (conv): Conv2d(512, 256, kernel_size=(1, 1), stride=(1, 1), bias=False)
        (bn): BatchNorm2d(256, eps=0.001, momentum=0.03, affine=True, track_running_stats=True)
        (act): LeakyReLU(negative_slope=0.1, inplace=True)
      )
      (3): BaseConv(
        (conv): Conv2d(256, 512, kernel_size=(3, 3), stride=(1, 1), padding=(1, 1), bias=False)
        (bn): BatchNorm2d(512, eps=0.001, momentum=0.03, affine=True, track_running_stats=True)
        (act): LeakyReLU(negative_slope=0.1, inplace=True)
      )
      (4): BaseConv(
        (conv): Conv2d(512, 256, kernel_size=(1, 1), stride=(1, 1), bias=False)
        (bn): BatchNorm2d(256, eps=0.001, momentum=0.03, affine=True, track_running_stats=True)
        (act): LeakyReLU(negative_slope=0.1, inplace=True)
      )
    )
    (out2_cbl): BaseConv(
      (conv): Conv2d(256, 128, kernel_size=(1, 1), stride=(1, 1), bias=False)
      (bn): BatchNorm2d(128, eps=0.001, momentum=0.03, affine=True, track_running_stats=True)
      (act): LeakyReLU(negative_slope=0.1, inplace=True)
    )
    (out2): Sequential(
      (0): BaseConv(
        (conv): Conv2d(384, 128, kernel_size=(1, 1), stride=(1, 1), bias=False)
        (bn): BatchNorm2d(128, eps=0.001, momentum=0.03, affine=True, track_running_stats=True)
        (act): LeakyReLU(negative_slope=0.1, inplace=True)
      )
      (1): BaseConv(
        (conv): Conv2d(128, 256, kernel_size=(3, 3), stride=(1, 1), padding=(1, 1), bias=False)
        (bn): BatchNorm2d(256, eps=0.001, momentum=0.03, affine=True, track_running_stats=True)
        (act): LeakyReLU(negative_slope=0.1, inplace=True)
      )
      (2): BaseConv(
        (conv): Conv2d(256, 128, kernel_size=(1, 1), stride=(1, 1), bias=False)
        (bn): BatchNorm2d(128, eps=0.001, momentum=0.03, affine=True, track_running_stats=True)
        (act): LeakyReLU(negative_slope=0.1, inplace=True)
      )
      (3): BaseConv(
        (conv): Conv2d(128, 256, kernel_size=(3, 3), stride=(1, 1), padding=(1, 1), bias=False)
        (bn): BatchNorm2d(256, eps=0.001, momentum=0.03, affine=True, track_running_stats=True)
        (act): LeakyReLU(negative_slope=0.1, inplace=True)
      )
      (4): BaseConv(
        (conv): Conv2d(256, 128, kernel_size=(1, 1), stride=(1, 1), bias=False)
        (bn): BatchNorm2d(128, eps=0.001, momentum=0.03, affine=True, track_running_stats=True)
        (act): LeakyReLU(negative_slope=0.1, inplace=True)
      )
    )
    (upsample): Upsample(scale_factor=2.0, mode='nearest')
  )
  (head): YOLOXHead(
    (cls_convs): ModuleList(
      (0-2): 3 x Sequential(
        (0): BaseConv(
          (conv): Conv2d(256, 256, kernel_size=(3, 3), stride=(1, 1), padding=(1, 1), bias=False)
          (bn): BatchNorm2d(256, eps=0.001, momentum=0.03, affine=True, track_running_stats=True)
          (act): LeakyReLU(negative_slope=0.1, inplace=True)
        )
        (1): BaseConv(
          (conv): Conv2d(256, 256, kernel_size=(3, 3), stride=(1, 1), padding=(1, 1), bias=False)
          (bn): BatchNorm2d(256, eps=0.001, momentum=0.03, affine=True, track_running_stats=True)
          (act): LeakyReLU(negative_slope=0.1, inplace=True)
        )
      )
    )
    (reg_convs): ModuleList(
      (0-2): 3 x Sequential(
        (0): BaseConv(
          (conv): Conv2d(256, 256, kernel_size=(3, 3), stride=(1, 1), padding=(1, 1), bias=False)
          (bn): BatchNorm2d(256, eps=0.001, momentum=0.03, affine=True, track_running_stats=True)
          (act): LeakyReLU(negative_slope=0.1, inplace=True)
        )
        (1): BaseConv(
          (conv): Conv2d(256, 256, kernel_size=(3, 3), stride=(1, 1), padding=(1, 1), bias=False)
          (bn): BatchNorm2d(256, eps=0.001, momentum=0.03, affine=True, track_running_stats=True)
          (act): LeakyReLU(negative_slope=0.1, inplace=True)
        )
      )
    )
    (cls_preds): ModuleList(
      (0-2): 3 x Conv2d(256, 80, kernel_size=(1, 1), stride=(1, 1))
    )
    (reg_preds): ModuleList(
      (0-2): 3 x Conv2d(256, 4, kernel_size=(1, 1), stride=(1, 1))
    )
    (obj_preds): ModuleList(
      (0-2): 3 x Conv2d(256, 1, kernel_size=(1, 1), stride=(1, 1))
    )
    (stems): ModuleList(
      (0): BaseConv(
        (conv): Conv2d(128, 256, kernel_size=(1, 1), stride=(1, 1), bias=False)
        (bn): BatchNorm2d(256, eps=0.001, momentum=0.03, affine=True, track_running_stats=True)
        (act): LeakyReLU(negative_slope=0.1, inplace=True)
      )
      (1): BaseConv(
        (conv): Conv2d(256, 256, kernel_size=(1, 1), stride=(1, 1), bias=False)
        (bn): BatchNorm2d(256, eps=0.001, momentum=0.03, affine=True, track_running_stats=True)
        (act): LeakyReLU(negative_slope=0.1, inplace=True)
      )
      (2): BaseConv(
        (conv): Conv2d(512, 256, kernel_size=(1, 1), stride=(1, 1), bias=False)
        (bn): BatchNorm2d(256, eps=0.001, momentum=0.03, affine=True, track_running_stats=True)
        (act): LeakyReLU(negative_slope=0.1, inplace=True)
      )
    )
    (l1_loss): L1Loss()
    (bcewithlog_loss): BCEWithLogitsLoss()
    (iou_loss): IOUloss()
  )
)
2023-05-07 18:21:17.365 | INFO     | yolox.data.datasets.coco:__init__:63 - loading annotations into memory...
2023-05-07 18:21:17.780 | INFO     | yolox.data.datasets.coco:__init__:63 - Done (t=0.41s)
…
